Models/DQN.pth (torch, 173664 bytes, 6 tensors)

layer1.weight f8 [100, 107]
00000000: c07e b57c 3a03 8d3f bf5e 12ca e826 a4bf
00000010: ef29 af4a e372 c1bf 6245 7b80 c7b9 a0bf
00000020: c38b 9586 536c b8bf 17e8 4c3f 6cd8 d03f
00000030: 245b 9bac 9deb ce3f db8d 3e57 4676 bebf
00000040: 4e72 5735 cf07 c53f 6423 f278 6d2d cc3f
00000050: 76ff 0d24 57de c93f 8e38 e026 def4 953f
00000060: e10c 8fd5 f095 a83f 7f33 ce10 8c23 b8bf
00000070: 12df 8f06 e3c5 aa3f c24c b80e f5dc be3f
00000080: fc75 b274 8c32 b83f 1d8a 0837 1448 b4bf
00000090: 895c d4d2 83b2 ca3f 1e00 5769 d81e a43f
000000a0: c7c7 748b 397b b0bf 762f be77 577a c13f
000000b0: f272 8ef8 dd0f 9f3f e28c 8894 0195 be3f
000000c0: d7af 055a 3bb9 b23f ee4e c54c 32b8 9bbf
000000d0: 7a52 3ab7 f86f 373f 3d4d 7d13 073e b63f
000000e0: 3240 ad64 40ed c5bf e2ea acbf d22f b03f
000000f0: 1dee 8464 96a7 b0bf 5c07 a81c ccb0 40bf
00000100: 896e df76 7fb9 85bf 5f69 d6d3 f71d d2bf
00000110: d411 3568 60e1 a7bf bfd1 85ca 27f4 b53f
00000120: 8ad7 8e56 eb11 83bf affa 8221 f5ae cd3f
00000130: d9f7 61b3 635a 873f 7260 56b0 ac6c c73f
00000140: 5356 ccbe 5c3d a93f 32cb aecf c77e 9e3f
00000150: 4468 892d 22df cabf 35fc 78d6 2c3a b1bf
00000160: 7b0e cf18 418c bebf 782f 5787 e8a6 883f
00000170: d8cf cc9b a9cd 663f 2c02 c48b 1331 ba3f
00000180: 2187 5958 6f4a 88bf a94d 4ce5 b911 acbf
00000190: 6f90 c16d 5334 87bf 1ffc 795c 838d d2bf
000001a0: 7dbb d752 57ae bb3f 6764 0d32 71da adbf
000001b0: 3929 1a1d 9c27 d1bf 149e 8c51 a5d0 cbbf
000001c0: 98af 1351 3f1e c13f 8cfa f405 5056 ac3f
000001d0: 5004 c39f 2663 c13f 5482 3009 e0bf b63f
000001e0: 6040 618a d2af a13f bbd6 d9c2 098a 86bf
000001f0: 4ab2 91b8 dbfd d5bf ddfc c38e 0c6d 8e3f
00000200: d9f9 5bd9 9543 9b3f be8b 8e9a 862c debf
00000210: 31b6 e1c6 8352 913f 1dcc 8ae6 b2f7 d0bf
00000220: 0371 f100 6e74 98bf c054 262d 1db8 c13f
00000230: d935 ec4d 8dfd bc3f 254d 0c53 63e3 adbf
00000240: 819f 27f4 3e69 b63f 401b cdea 5f39 b0bf
00000250: f1d9 5686 21ab bfbf 3f2d f93a c18f a93f
00000260: 7d6b 168e 997e c4bf af93 efec 4eba d73f
00000270: ebe7 263e 980e 9e3f 3d5a 6b8f 1cac cb3f
00000280: 1e2e 6ba1 c19d c23f b8ef 5520 a0a1 bf3f
00000290: 92eb 6f6e 264a d43f a2eb 0bec 7aff c8bf
000002a0: 80bb 32b6 88db ad3f 3366 f5f9 29a0 a53f
000002b0: 7317 0af1 ac3b c03f 6f83 6741 f9fc d0bf
000002c0: 8b9e a766 ba3b c5bf fc39 eb12 bc35 d7bf
000002d0: 652f c3e4 94b2 c0bf 4d57 3d99 7d44 d43f
000002e0: 6e72 c561 ca68 d73f 7990 7e93 b6fd bb3f
000002f0: 471d 2b52 aa6e 99bf 40eb 1b44 ce02 cb3f
00000300: ab18 b355 cc08 603f 1588 accc 098a a33f
00000310: f5a9 d599 689d cc3f f707 d15c 32d5 653f
00000320: 5e17 174c 53b2 a9bf ead8 bd42 30c8 d2bf
00000330: 7c91 ef9e f5c8 d53f 2fdd 708c d247 c63f
00000340: 1c4a c2fc 9a7e ba3f b4c3 6651 e05e ccbf
00000350: 70b8 6fdf 2955 d23f e591 bf25 728d c93f
00000360: 78fb b6a8 c6c4 99bf 720c 391b 52ce dabf
00000370: 4612 3787 da67 bbbf c7f4 8c0d cdf6 8a3f
00000380: 2e97 630e 71d8 b7bf 131a 8143 a557 c23f
00000390: b127 7e78 41c0 a3bf b83c 5c22 d5bd acbf
000003a0: f9eb 3826 6f41 aabf 1a5f 1d85 7888 cd3f
000003b0: da07 baed 742c b83f afcb ddcc c42b 85bf
000003c0: b75a ac56 de80 b3bf 0e28 0335 b0d8 853f
000003d0: 6ad6 b112 0227 bfbf fa29 7f71 dc17 99bf
000003e0: ebce a4a9 149c b0bf 71bc 29eb 4e6e aabf
000003f0: 2c8e b4c9 2b70 57bf 5689 55b6 110b 9fbf
00000400: 89b7 e9dc b1f2 c4bf 930b 52b1 90aa abbf
00000410: 52e0 9533 05af c53f b72b 7ddb 2f3a e03f
00000420: 0169 62d0 0167 ba3f 1ba7 86b9 fa20 723f
00000430: 5027 a449 ffa6 bebf 56ce 9c5c 7ea0 bebf
00000440: a4dc 88da 895c b73f d8b3 3bb2 3633 b43f
00000450: 1dae 0b43 0fbd 953f 5580 0f2b d140 b1bf
00000460: b55c 23ee 88cd d1bf c4b3 2002 6586 b53f
00000470: ba4a ca12 ee54 8a3f 062f 3791 62ab 733f
00000480: fc2d 1280 9816 653f ea75 dbee 7ce0 aebf
00000490: eb25 3cbe d285 abbf 6371 58bb c635 a2bf
000004a0: ab5e a333 ebc6 a3bf 6059 8317 2277 c53f
000004b0: 1152 128b 6535 93bf 6e8c 80bd 7717 c2bf
000004c0: f5dc 830f 15fb b0bf a39b 60a5 de9f d33f
000004d0: a574 b079 e2a1 5abf c960 54c6 6947 923f
000004e0: b258 62aa a0db b53f 705c 6780 4d11 9ebf
000004f0: 431f 7bd1 f870 c43f 99dd 7610 be48 b4bf
00000500: 3e5a 4e86 b252 c0bf a6f7 853b d915 a63f
00000510: 400c 28cd d9e7 a63f 8317 2595 8d55 d0bf
00000520: 70a1 b603 5a31 ac3f 721b af5f 9fb5 b23f
00000530: 5a44 440a 60d3 c4bf cfbd a1a7 e368 bc3f
00000540: 64f4 bb64 99fd a93f faa1 4c2a 61f5 c83f
00000550: f86f 6777 7869 acbf 829e fa2e 36d2 9fbf
00000560: 38f3 59aa 994e b83f 56e5 9faa 310c 99bf
00000570: 19a4 17bc 2e93 b1bf ab52 a668 8d40 993f
00000580: 5d7a 9cb5 67a2 44bf 9724 6ebf a25c bfbf
00000590: 285b 8f1e fd96 95bf 7571 5c23 7645 a0bf
000005a0: 8520 07bd da19 b33f 1ecf 12b7 075b 903f
000005b0: ae95 af33 47b6 893f d97f 8d31 ab4e d5bf
000005c0: 2070 1334 700c 9dbf 395c e3d5 e8d3 a1bf
000005d0: 829f e055 23b2 cc3f 307f 1281 5151 b4bf
000005e0: 45b2 09c9 1e1f a7bf 663f 2320 e37d b33f
000005f0: af20 5c40 ff39 8ebf 3c2e acfb 34f2 82bf
00000600: 5762 f586 a0e8 c13f 04dc 2159 c210 bbbf
00000610: 7dc9 6b98 36cc a13f 19c1 138e 4fb6 9e3f
00000620: afdb 66a4 15f6 a0bf 816b ce37 cb5a cb3f
00000630: 716b c33d e418 e8bf f40c f56c 3198 a03f
00000640: ce68 30d6 34f9 a1bf cfca e5cf c2ed e13f
00000650: a3f6 2487 73ef a13f 0081 68eb c83c 93bf
00000660: 2fe3 a919 fb32 aebf cea1 8447 c5ca 9c3f
00000670: 601e 7714 09e2 e8bf af2c 08f0 fc61 a9bf
00000680: e1a3 541b 2831 833f 2794 dbcc cbd6 e03f
00000690: ce0f 35b1 ae85 9b3f 3812 9476 cee8 ac3f
000006a0: c173 7d70 5f21 ac3f c6ee e9ba 32dd b9bf
000006b0: 2df4 5181 a899 a2bf 75bc 26d3 1f57 a6bf
000006c0: 3eac 59ce bb1f 9cbf 9205 fac7 3549 8e3f
000006d0: 1e62 0ae1 e2c1 a33f 0cfa 2cdb 2c8f b83f
000006e0: 8d55 51c6 13ce b23f bfc6 569f 2af0 b5bf
000006f0: f580 8646 ca8a aebf 69e8 0b62 d744 423f
00000700: 5c0e 755c f285 a5bf 561e a531 d169 b43f
00000710: c7d2 20f7 4769 adbf 1619 0f16 c210 a2bf
00000720: f6c5 adf1 3a94 aabf 3532 65e6 6d77 b6bf
00000730: 0901 dad8 473a b23f d4db 186e 38f6 b3bf
00000740: 59c7 caa9 14a6 a43f 2ca5 7084 0221 923f
00000750: 6db7 ccdb 648f a7bf 0fb4 b390 bdf9 913f
00000760: 4ba8 4916 f449 a8bf 31a3 ade5 4314 9b3f
00000770: d3c7 96b1 1e4a 8fbf bc41 fb1d f33f 9ebf
00000780: 14bf bda8 06e8 8abf 6e8f 1da6 09ce 8abf
00000790: 0fb7 64a7 1a5d 843f a8cb aef7 a58e b03f
000007a0: f6f4 e880 320a 8f3f dd61 b450 30ac 863f
000007b0: 3215 d896 2cc8 983f c234 ef6c 40d6 963f
000007c0: be86 5dc2 4e42 9c3f 3e36 3f7a 4eea b23f
000007d0: 536b e4ca dbb2 aebf b525 c93d 9702 9cbf
000007e0: 61aa b71a bb1a b4bf 1ccd e559 3ad5 aa3f
000007f0: f642 25fa 945f a43f 652c bd28 f656 b6bf
0.014166314059081642 -0.03935935465523021 -0.1363185991925344 -0.03266738360765477 -0.09540292773958385 0.26320940190964975 0.24156542709416684 -0.11899222974766792
0.1643008242089245 0.2201363411479874 0.20209779034120928 0.021441908953470583 0.048018957204044595 -0.09429240618028521 0.05229100661375531 0.1205590401589687
0.09452131127405744 -0.07922483771884754 0.20857284349833474 0.03929783140074526 -0.0643802609891103 0.13654607149907932 0.030333965583497276 0.11946115375808433
0.07313891361053436 -0.02706984132357964 0.00035762617265192693 0.0868839666921319 -0.17130284229142628 0.06322972468926083 -0.06505718187411742 -0.0005093571319891676
-0.010607715430459368 -0.2830791062093762 -0.04664136192380722 0.08575676626589422 -0.009311522082366758 0.23190178047476226 0.011402872955155562 0.18300398454880767
0.04929628209189887 0.029780504275275628 -0.20993449424242006 -0.06729393230578824 -0.1193276105469127 0.012037102346674308 0.002783614413056395 0.10231134569404138
-0.011860723384589602 -0.05482273983048042 -0.011330272471419016 -0.28988727599056746 0.10812898418929069 -0.05830720649709847 -0.26804259149561777 -0.21730486375712188
0.13373557528336444 0.05534601280895854 0.1358383445822562 0.08886528229096174 0.034544543640209424 -0.01100547433746201 -0.34361928009346754 0.014856432062968878
0.02662500514179009 -0.47146763890685495 0.0169163313043354 -0.26511833680996394 -0.023881644065441254 0.13843121246887868 0.11324389603051745 -0.05837545765657585
0.08754342518625259 -0.06337546808673 -0.12370500116126217 0.049924887131590705 -0.16011352002973558 0.3707463563753732 0.029352549355941376 0.21618992808244455
0.1454393423249351 0.12355995931096586 0.31702576432115237 -0.19529663587294716 0.058315536728847484 0.042237579119227674 0.1268211533499045 -0.26544028651374324
-0.1658852578395805 -0.36265470359367646 -0.13044987840691671 0.31668033566289894 0.3657709078595762 0.10934010601937584 -0.02483621717945297 0.21102312398564926
0.00195732030042269 0.03816252349339792 0.2235537291665676 0.0026651366847838492 -0.050188639677385835 -0.29346853749974733 0.34039059182239106 0.1740668473955593
0.10349434538719787 -0.22164539313010112 0.28644797153436397 0.19962908595256504 -0.025164703414471273 -0.4188428178642375 -0.10705343056822256 0.0131660480270689
-0.0931463871125657 0.14329973026379203 -0.03857616992816249 -0.056135807461140386 -0.05128047315198354 0.23072725772612374 0.0944283562076004 -0.010337388517404593
-0.07618512741133086 0.010667206399734421 -0.12168896633542095 -0.024505085398951444 -0.06488160268491654 -0.05162283535616375 -0.0014305522552796697 -0.030315663102905198
-0.16365645682111232 -0.054035684247558134 0.16940369623967172 0.5071028983014604 0.10313426339635968 0.004425982850458056 -0.11973567531472651 -0.11963643799827514
0.0912557753116397 0.07890645839115906 0.021229017703190068 -0.06739527989657408 -0.2781698537414273 0.08408194829890109 0.012857303570205193 0.0048021173747192555
0.0025742510338824225 -0.060306457669621796 -0.05375536510662101 -0.03556653057987338 -0.038627004674422004 0.167698155861852 -0.018758379567389186 -0.1413411784461433
-0.06633121136461624 0.30663267278799305 -0.0016255103753402358 0.01785054467208694 0.08538250121850657 -0.029362879717009738 0.15969763020097547 -0.07923496152840527
-0.12752372320092492 0.04313544131853968 0.04473763112402951 -0.2552217442029063 0.055064022973342897 0.07308384023700201 -0.1627006578569617 0.11097548334668449
0.05076293329873563 0.1949883896388796 -0.055492176604928944 -0.031075331323022322 0.09494934472054417 -0.02446057895574446 -0.06865207759950955 0.02466031028014252
-0.0006297117608687442 -0.12250725911703096 -0.02108378886245102 -0.03177994901327256 0.07461325755059718 0.015972252415578862 0.012554699196651278 -0.33292655791410436
-0.028367760828459265 -0.03481986628474271 0.2241863412211807 -0.0793658199422651 -0.045159303704029465 0.07613963636981466 -0.01475905814324138 -0.009251035623967778
0.13991171445629177 -0.10572447467880869 0.034761148553928735 0.02999233536405752 -0.03312747604234489 0.2137083075038753 -0.7530385214152898 0.032411140966837865
-0.035104418893938324 0.5602735577106958 0.0350299932929208 -0.01878656327073802 -0.05898270309712072 0.0281172585393124 -0.7775922202790291 -0.04957571439816754
0.009371102651657583 0.5262202263953711 0.02687714535319668 0.05646367261400481 0.054942114335723165 -0.10103146613431155 -0.03632856920828718 -0.04363345577746084
-0.02746480414354501 0.014788074651053393 0.038588609667560045 0.09593468047112469 0.07345698920956618 -0.08569589986907554 -0.05965263472467256 0.0005575229334617962
-0.04203755739811463 0.0797396417811965 -0.0574438561601816 -0.035284104531046065 -0.05191215706043899 -0.0877598464478034 0.0712017921850966 -0.07797577560346208
0.04032959530503772 0.017704047521111807 -0.04601588423825729 0.017554246861369246 -0.04743922016207643 0.026444493192147426 -0.015278091234765789 -0.029540823655055823
-0.013137866997311266 -0.013088298208181217 0.009943207009736747 0.06467664048140753 0.0151561685171324 0.01107061144152593 0.024201103884498205 0.0223016802299767
0.027596693623656014 0.07388773426574688 -0.059958332554933456 -0.027353633066274436 -0.07853288080483757 0.05240805003531987 0.039791732344957184 -0.08726442808726771

layer1.bias f8 [100]
00000000: c680 61a7 1f04 7a3f 210a 0888 4516 23bf
00000010: dd06 ba05 c823 b6bf 07c3 80ed 7540 b83f
00000020: 4674 29eb 3fd5 a0bf a0b8 251c b88a b9bf
00000030: c069 ad64 ed96 953f 1c4c e74f 3167 bfbf
00000040: f5e7 90a2 87d0 c33f 8b59 4692 d0c4 b0bf
00000050: dc35 dcd1 5060 90bf 390b 30e9 8b1c aabf
00000060: 046a 65c1 b2d0 6a3f f241 8df4 2f78 b23f
00000070: f917 6ddf 2ef9 ac3f 24b2 b179 717d ad3f
00000080: a166 c177 046e 813f 17b2 104e 57b0 b3bf
00000090: cdfc 624d 7d6b 9cbf 14ed f24f 934b b63f
000000a0: 12b3 24ac 9e42 8c3f bba9 91ad 339f 8bbf
000000b0: cc6f da9f 64c3 b73f c326 c8d2 5fe9 a93f
000000c0: 0270 1ba0 2828 8ebf 9cc4 ffc6 c50d b2bf
000000d0: 7ba1 aad6 0d0b 81bf 212f 4efd bf1e 903f
000000e0: f71d b9bf 2768 b0bf 4937 762f f063 b13f
000000f0: 36eb e4a2 ad0c b2bf 8727 7ccc 7847 b73f
00000100: 331c c865 b268 b2bf 0adf 89af 20b0 b03f
00000110: 1e99 a175 2882 a0bf 5748 a3d0 610c b6bf
00000120: 5005 6d15 9b0f c3bf 3d8f bb51 046b b7bf
00000130: 5f61 0d45 c1dd 85bf e8c6 47a1 3eb9 c53f
00000140: af96 fd77 e6be b23f d69a 50b2 a0ed bcbf
00000150: 7a4d 4ae8 d75f bc3f bf6e 6b88 29c3 c1bf
00000160: af98 e06c a511 a63f 560c ed9a c564 a13f
00000170: d3c3 b558 429a bc3f f598 26cb 6c64 b73f
00000180: 7ba5 1574 2ad7 a7bf c67f 62c6 4271 a13f
00000190: 1a56 b644 3184 acbf 8b3f 716c 1697 b5bf
000001a0: 8767 dc2a 271b a43f 0067 ab9d 61f8 bc3f
000001b0: 4c2c 25a3 cc82 a03f 4ee2 16c0 8b14 a33f
000001c0: 6faa c7ff a770 883f c8e9 190d a5c4 b43f
000001d0: 77ea af17 6637 853f 7f2b 8a22 bdc6 903f
000001e0: b605 bafc 72d6 72bf 87c5 4b00 56ab b53f
000001f0: 88af fb52 184c bf3f bc0f 0a5e 30a0 6f3f
00000200: f22a e01a c6de a7bf d63d 2014 7c6a b1bf
00000210: e3bd 9e9a 13d9 bcbf 96b5 58af 59f9 adbf
00000220: fd46 8de3 705f c13f fde9 b4d8 7bc7 ac3f
00000230: 1ff8 422c 4ef4 b93f dfb2 9a99 0f1d 993f
00000240: e415 db3f 783e a23f ddd1 a950 3db8 22bf
00000250: 26c4 38da 79e1 bf3f eca9 3a9f 19f7 25bf
00000260: 0a0a f110 b175 c03f 642f 1730 3e1d a63f
00000270: dc53 b347 1e43 78bf 1597 e2c9 f794 b13f
00000280: 2dc1 ca87 91a2 9cbf fd3d 3a00 40cc a4bf
00000290: 3479 a8d6 eeec a3bf 2749 7ebd 9b79 b73f
000002a0: 5d72 c2da fd98 9bbf 99e6 fa49 9d14 c03f
000002b0: c3a9 406a ed17 b8bf aeea 014b abb8 80bf
000002c0: 2d8f d412 46b8 b4bf 51a8 a3ba ad28 a53f
000002d0: 5f57 af4d 681d b1bf 5646 ad58 5dff a53f
000002e0: 1480 9beb c643 adbf 39c1 b62d a81f 97bf
000002f0: d6c6 e692 016b 87bf b33d 1aa2 85ee bebf
00000300: 7d15 2c55 cb10 bf3f bb6f 14c4 ef73 b53f
00000310: 1299 075e c0c6 bcbf 4776 0c82 ada7 b93f
0.0063515888669771255 -0.00014562224170340621 -0.0864834798794862 0.09473359154140946 -0.03287696595791849 -0.09977293669882892 0.021083554525242354 -0.12266834450501601
0.15480132520480053 -0.06550315447962 -0.015992415245866684 -0.050999042716304684 0.0032733432118849954 0.07214641304495453 0.0565886161553379 0.05759768114589672
0.008510622887274723 -0.07690950065507028 -0.02775378975706815 0.08709068967703032 0.013798942211531027 -0.013487247213750267 0.09282521155040441 0.05060862968464399
-0.014725034128268536 -0.07052265270592034 -0.00832186519012689 0.01574230178407199 -0.06408928328266215 0.06793118628249063 -0.07050595499906084 0.09093432419117962
-0.07191004738716415 0.06518749509438862 -0.032243027076036976 -0.08612643569657173 -0.14891375108895 -0.09147669787813313 -0.01067687026959224 0.16971571803110597
0.07322540692765743 -0.1130009112681408 0.1108374540438514 -0.13876837884060042 0.043103379765214604 0.03397195354639197 0.11172880807659107 0.09137611350761062
-0.04656346003578001 0.03406723663033477 -0.055696048391080846 -0.08433666369933072 0.039269660932588706 0.11316499804834379 0.03224791995543139 0.03726612777558512
0.011933624738010821 0.08112556047300423 0.010359571073412994 0.016383128388536058 -0.004599045914461744 0.08464562899805204 0.12225486780124417 0.0038605637240056428
-0.046621504574508324 -0.06803107730251354 -0.11268732571510713 -0.0585430170579954 0.13572512732439881 0.05620944042535212 0.10138405399899895 0.024524921179067568
0.035632856173417854 -0.00014281986689791598 0.1245342405097892 -0.00016758144157809297 0.12859166457390386 0.04319185578387311 -0.005923383981287746 0.06867932013355145
-0.027963899529539638 -0.04062080385949327 -0.038917030051595 0.09169934631635056 -0.02695080421163919 0.1256291018706193 -0.09411510318810827 -0.008164728380724764
-0.0809367938969074 0.04132597831069574 -0.06685497185330068 0.04296390254479536 -0.057157722721740495 -0.022581699171213308 -0.011434566779687055 -0.12082705695706046
0.12135001019858822 0.08380030190568181 -0.11240770621916266 0.10021480965630146

layer2.weight f8 [100, 100]
00000000: d546 ac6c 85ac bfbf ec6f c013 3cbd d33f
00000010: c325 13f3 bd71 b7bf 9cab 49f8 fe1b c53f
00000020: 9afe 27be 3a65 ce3f 2865 f0c9 470f afbf
00000030: 49d1 b936 3abd bd3f 9ee0 b6ae 5f1d b63f
00000040: 833e d1e6 f6b0 b63f 7233 9e34 9fea c63f
00000050: 203a 8569 52f7 a3bf bfc3 f832 aab6 ab3f
00000060: 64aa f825 f607 c83f 6b24 1da8 1f7b a8bf
00000070: d243 d6fd e787 b3bf 02e3 c725 2230 88bf
00000080: 3601 3ac5 ed16 c53f f3ac 10e2 9043 b33f
00000090: 3b05 d006 988f aebf c70e aab0 b398 c73f
000000a0: c925 cff8 6d67 e1bf 19c8 33ec d8d7 cdbf
000000b0: cba6 57b3 d606 b6bf fb52 cfe4 2344 d53f
000000c0: 7f60 f293 8946 bebf a1f7 242e eaa2 9f3f
000000d0: 6769 b05e eb41 a8bf cea7 45a6 69cf 7abf
000000e0: 341b 7b90 7c60 b7bf 0ae2 70d2 82ec 8a3f
000000f0: aedd 0f71 bdb2 c33f 6131 3e71 fcf4 a43f
00000100: 7fcf 9977 cee8 b2bf 9ed5 ec9f 1cc3 bcbf
00000110: c815 e54c 9020 c03f de69 729e f6b3 d43f
00000120: 1f0c ba3f f05e d33f cd8a 905b 187e b43f
00000130: 1a6c 828d c73d d83f 2a79 fbab bce2 d7bf
00000140: 5c66 3f12 da49 b83f ab51 479d ac92 d43f
00000150: 973f 118d 98ce c5bf 2bce 23c6 af1d c63f
00000160: 2043 6108 4550 b83f 95bf 1487 5c89 b03f
00000170: 98aa a0f3 dbf2 ce3f e3ac 1e70 24c1 b23f
00000180: d45d 48df 0cda 893f 582a 2673 fe3f bebf
00000190: 88b5 f411 d1f7 c13f 138f 7842 4277 ae3f
000001a0: 7bae 3771 0953 c33f 92de e956 01a7 bcbf
000001b0: e15f cb7e 558f cebf 9145 d3cd 4a69 bb3f
000001c0: fd10 8842 51dd 9bbf 1530 d8e7 6660 b8bf
000001d0: a792 3b2a f94e ca3f bdd9 2e47 922b d5bf
000001e0: 1a79 de57 ea8d d0bf 91e5 85ad 784e bbbf
000001f0: a758 af34 3956 7bbf 92c2 baed 9f75 da3f
00000200: d79e 5b19 abd7 d13f bac9 621c 64d0 af3f
00000210: 6601 7de5 7d06 b43f 90db 1ce7 3862 b1bf
00000220: f82f 42b7 7cdb d5bf fb84 d052 e22a bfbf
00000230: 611e fb7a 330c b1bf 694b 6f2e cfd3 cb3f
00000240: b8a5 b300 25e3 cf3f 242a 736b 5462 cdbf
00000250: 51f7 d784 73ee c63f 3795 71fd ac88 a43f
00000260: 527a 84af 85c8 84bf ee26 894e 95c3 a23f
00000270: a38d 6bf1 89ad c7bf cc03 26b4 8ffd b7bf
00000280: 06a3 5b1a b9d8 ca3f 5704 e7cc a4d9 d9bf
00000290: 9250 8509 b500 cb3f 837e 8a99 1bf3 c43f
000002a0: 45ee 3f09 5b5a b13f 1727 357f 3a5f aabf
000002b0: c3b6 a135 c011 c53f 1954 108e 847f c03f
000002c0: 0261 37cd c0b1 7b3f f570 3b9f 1454 d4bf
000002d0: 100f c0e8 1c8e a1bf c7c6 caba 61ff ba3f
000002e0: 0711 23dd 9dec debf 3db4 ffae 518f c4bf
000002f0: 52ce 4d8a e184 c53f 4223 b859 414b 75bf
00000300: 157b f2ab 0950 d1bf 29f1 7b9d 359b c23f
00000310: d80c 9b4d e55d dfbf 7142 4c8b ff01 dbbf
00000320: 7b61 5942 b265 b5bf a5c0 50eb 191b 873f
00000330: 8961 3219 ef63 9fbf da5c 74ba da26 ac3f
00000340: 6971 feb1 f0bd b1bf 3855 0cc2 da44 72bf
00000350: d4b4 f000 1f4d b53f 6c04 c6c0 1f0b b0bf
00000360: 9177 4eab fd62 bbbf f1d8 3fbf b74c 993f
00000370: 4bd7 88a8 02ab b5bf 70df b710 c77c 983f
00000380: b802 9c88 539a a93f 50ff d0b1 3728 b9bf
00000390: 706e ff97 b8de 793f 3c82 a052 b3c7 babf
000003a0: 7fd9 7825 78e2 993f 8619 e357 6f76 a93f
000003b0: 16c1 34bf b6ca 7cbf 7c4e 5e9b 4acf aebf
000003c0: ea38 62e0 4cf5 ae3f 6356 02a4 e197 b7bf
000003d0: d91d 031d f9c0 adbf 167d 5aa2 67b2 aabf
000003e0: c98a 8a96 bd20 a2bf 3099 436c 3e46 b9bf
000003f0: 47fd f142 3773 7ebf 24b3 df76 fcbd ab3f
00000400: 857f 42eb 7b15 a3bf 98cb 4302 ebcf a9bf
00000410: f2e7 339e ec7b b4bf 579a bc68 851d bdbf
00000420: 6ecd 4733 b624 a8bf 624d 162e b41b a23f
00000430: 5b88 1304 a803 a13f 04f4 9a7b 0d30 a03f
00000440: 2f9a 6d6e 1574 a13f 0413 4db6 f0ff a3bf
00000450: fba2 a4a5 388d a0bf a9da ad83 161d bcbf
00000460: 5de5 7d93 e9ab a7bf 2ff7 4a52 4d73 903f
00000470: b32d 1472 e873 babf 4c2f a5c2 8465 72bf
00000480: 5828 f4b3 f06b 9dbf 2290 19d9 2aaf b3bf
00000490: 78e9 f416 dfd6 babf 0633 f9ee 2a23 823f
000004a0: 3c28 413c 3abb b2bf 0c0b c414 503c a93f
000004b0: 54f4 641d 4b41 a33f 55c4 9596 acd2 c5bf
000004c0: 3393 2f59 f7d3 813f bc42 3083 56e1 a63f
000004d0: a2d0 01bd 0392 62bf 5d35 931f 8627 9d3f
000004e0: 4eff a43b 07b4 a73f 3d91 fd39 ec2e 933f
000004f0: c371 8385 95e5 94bf 0476 94bf e076 b83f
00000500: c529 12c8 e47b adbf 7590 faab 83fb b43f
00000510: 210d 25d7 eed6 8d3f ad05 7aed 7d5e b3bf
00000520: a4a7 0747 7105 9f3f eb74 ea20 d695 91bf
00000530: 5fe9 8e50 549e b9bf 00b6 103d 875d 843f
00000540: 2fed b5e9 bd82 b3bf 21e5 6a40 cab8 973f
00000550: d1ef cf94 8209 c5bf 00a0 f14b da07 b9bf
00000560: 6a28 1ea2 1d08 c3bf 31c7 d7ad 99f5 c2bf
00000570: 5f2c 344a 896d 88bf 06f3 fd9e 967a b4bf
00000580: 8a8c a968 2c2d bebf 9cb6 e5d2 d1bd b0bf
00000590: dc5f c0b5 8fa1 a03f 23fb c7d5 620c b9bf
000005a0: fa90 a6b8 0315 b3bf 0d5f 0b50 1bf8 9c3f
000005b0: d649 56e4 2581 bbbf b209 0dc2 d5f7 9fbf
000005c0: 64f4 84a6 3f5d 8d3f 0726 d4f0 e00b 99bf
000005d0: d3d3 6755 9c30 c1bf 72ca 45bc fe78 babf
000005e0: 487f c29b d930 b4bf 35f3 d9e7 df26 993f
000005f0: fa60 d2bb 4feb afbf 7fd6 3939 b937 7f3f
00000600: ad08 3919 04c7 86bf 6554 209a d839 b4bf
00000610: 4102 c9e3 f0bc a2bf 46a2 d0d8 e401 a4bf
00000620: c567 0c30 cbd7 ac3f 8a4c 51bd 94b3 b9bf
00000630: e692 4139 6403 b93f 9155 85a8 46f9 a7bf
00000640: 4dad 5006 6c06 a73f c67b 977c c7cd d23f
00000650: 0466 8350 bae0 adbf 01d4 e1a3 e450 d23f
00000660: f265 2c82 afd1 db3f 0204 5463 9d90 b4bf
00000670: fcfa 9f04 2ef4 9f3f a061 96e8 1082 b33f
00000680: d728 689d b79e 943f bce6 12c9 843b c3bf
00000690: 91fd d92a 3212 d1bf 6e58 8afd d997 b63f
000006a0: c94a acc0 a840 d03f 3fb8 c21b 524b a1bf
000006b0: df25 aff6 ff72 c3bf 979c 27f9 1e2e 95bf
000006c0: 96e1 3e9f 1e1f c83f ccd2 9185 b60c 703f
000006d0: b208 716c 3839 bc3f 7235 d92d ebe0 bbbf
000006e0: 718e 19b9 31de d2bf 3e67 3de3 90e0 d2bf
000006f0: 1945 c897 3289 af3f 4611 6113 45e2 b73f
00000700: 775a c466 5b3f d0bf efe1 8325 9522 a6bf
00000710: 85d5 8090 b1bb b3bf 77c2 5a8e 0218 91bf
00000720: 628e 7d02 fbab cdbf 4860 5b06 c69f e1bf
00000730: ba59 63be f899 abbf f2eb 19e4 6d1b a6bf
00000740: f949 bf1a 95a9 82bf 5159 7941 0cca c03f
00000750: 7061 2b44 7aa8 c83f 76ab 14cf 1a29 c53f
00000760: 8051 669f 8325 a8bf 23e6 5d11 6fd7 b73f
00000770: 6dac dc44 7482 c73f 031a c1bc e4b7 c3bf
00000780: 3f36 72c2 5a18 b9bf 2559 74db cc83 a4bf
00000790: e130 c713 5c0c c13f cc7f da15 568d b63f
000007a0: b9e0 90ef 13f9 99bf 9fce 0dcc 6455 72bf
000007b0: d124 3537 f848 b4bf 0cd9 e691 aa49 84bf
000007c0: 2343 149b 84e6 c8bf 519a 7194 caa5 ab3f
000007d0: 8fb6 ed40 804c c03f abe6 9036 6dd1 bbbf
000007e0: 8dbc 5b7d 70cd a3bf 377e 3be2 5f4d b73f
000007f0: bbcf c629 164e c5bf 792e ece2 e8c0 9e3f
-0.12372621443889938 0.30842496804120745 -0.09157931503718601 0.16491686938692574 0.23746427807781317 -0.06066345539165702 0.11616863094406428 0.0863857080029242
0.08863776335896927 0.17903509206044138 -0.03899629152384798 0.05412799713338456 0.1877429662138922 -0.0478143589703642 -0.07629251429740627 -0.011810557153681515
0.16476223116115712 0.07524972457092698 -0.05968928416406035 0.18434759260354935 -0.5438756808809383 -0.233149638493672 -0.08604184988476075 0.3322839483710564
-0.11826381551725439 0.030894908014708403 -0.047377925213555376 -0.006545460408554816 -0.09131601836552933 0.013146421477459053 0.15389221211056053 0.040931595634080116
-0.07386484546606019 -0.11235217003271322 0.1259937644446565 0.3234840915044098 0.3026695844966429 0.08004905925239854 0.3787707216194477 -0.3732139281763859
0.09487688966273694 0.32145228728520675 -0.17036730659537788 0.17278096365736081 0.09497481779659411 0.06459596917988926 0.24178647418860488 0.07325961816120556
0.0126229291573016 -0.1181639701009457 0.14037526489975627 0.05950362264073141 0.1509715845889906 -0.11192329761422062 -0.23874920550474513 0.10707538151770836
-0.027211446462403355 -0.09522097740426745 0.2055350738729846 -0.3307843871256429 -0.258661828813176 -0.10666612850572778 -0.006674025974424825 0.4134292432382064
0.27878835178715405 0.06213677259929136 0.07822405674688113 -0.067905002998357 -0.341521433795378 -0.12174810907210436 -0.06659242393936317 0.21740140693017487
0.24911940130486498 -0.22956328627181322 0.17915195452217827 0.040105253160428615 -0.010148090762013205 0.03664843162239416 -0.18498348510830195 -0.09371278904110553
0.20973886286744675 -0.40390892038346266 0.21095908131485835 0.1636690616332893 0.06778496719192002 -0.051507785824084155 0.16460421198592287 0.12889153420169988
0.006761315471031761 -0.31763186979311736 -0.03428736058415727 0.10545931635240456 -0.48319193454177917 -0.16062375111451557 0.16811770680543475 -0.005198722148187342
-0.27051011840551215 0.14536161603599254 -0.49010593966177174 -0.42199696162518935 -0.08358301277019635 0.011282160276181516 -0.03065465537346904 0.05498393560463351
-0.06930450768999709 -0.004460196040573287 0.0832080247207217 -0.06266973930725478 -0.10697923118865861 0.024706717536866433 -0.08464066137898134 0.023913488765145485
0.05000554125399986 -0.09826992121906852 0.006315918988515898 -0.10460968749294691 0.025277974402535982 0.04973171184387852 -0.007029260497162923 -0.06017525812708599
0.060465242758356144 -0.09216127637986342 -0.05811289290573613 -0.05214237076620003 -0.035406040789231215 -0.09872808592954097 -0.007434097161535042 0.0541838545903828
-0.03727328535865041 -0.05041441347739023 -0.08001593458530445 -0.1137317066864879 -0.04715508819563295 0.03536761343562024 0.033231020448298586 0.031616612757240176
0.03408877346992189 -0.039062044385479694 -0.03232743284235614 -0.1098188468439313 -0.04623346257626324 0.01606484236503219 -0.10333111558082102 -0.004491346926737649
-0.02873207186079471 -0.07689159202851717 -0.10484117804018023 0.008856139581575839 -0.07316936465318319 0.049288275275122556 0.03760752424066341 -0.17049176552567027
0.00870507470058044 0.04468794204161017 -0.0022668908132406776 0.028471084286868165 0.04629538157541778 0.018733683623751708 -0.020407043718351902 0.09556393315548212
-0.05758585874817216 0.08196280430508003 0.014570108357139734 -0.07566058204431299 0.030294198952027465 -0.01717314315702804 -0.10007216421846497 0.009944016028465619
-0.0762137122709887 0.023165855581031573 -0.16435272470687193 -0.09777607301805347 -0.14868517318638236 -0.14812012661382704 -0.011927673890133215 -0.07999554998054856
-0.11787679248077346 -0.06539641760692877 0.03248261541028771 -0.09784524649874675 -0.07453940637657644 0.02829020191242564 -0.1074393923247848 -0.03121885296719435
0.014338013905780218 -0.02445937604810491 -0.13429598016924035 -0.10340873810290832 -0.07887039234856019 0.024562357450565748 -0.06234215896364677 0.00762150147385443
-0.01112178041433184 -0.07900766146515677 -0.03659775524693432 -0.039076949564620864 0.0563338752892402 -0.1003964388085469 0.09770800016265077 -0.04682370001925585
0.044970870753184934 0.2938097683635842 -0.05835516197994298 0.2861873245631728 0.43467319214104727 -0.08033164668087525 0.031204909355433394 0.07620340040592177
0.020136708242753123 -0.15025386636789573 -0.266735593650048 0.08825457038833104 0.2539464837620185 -0.0337777766120415 -0.15194701714635436 -0.020683750111768786
0.18844969535508643 0.0039183740383250225 0.11024811408518323 -0.10890073651645141 -0.29481165958552596 -0.29495641890899893 0.06159360983668644 0.09329635356067909
-0.2538670066436803 -0.043232594327438416 -0.07708272722159933 -0.016693153322821588 -0.2318109285507602 -0.5507536052855437 -0.05390908550332392 -0.04317801865996519
-0.009112515333900882 0.13116601178144063 0.1926415284022016 0.16531691657413788 -0.04716121025845421 0.09313100980752913 0.18366864550020826 -0.15404948441046437
-0.09802787062854977 -0.040068055905225365 0.13318968740202933 0.08809412034543057 -0.02536421918577567 -0.004475969065299928 -0.07923842761842372 -0.009906132295196567
-0.19453485080932706 0.053999262447906766 0.12733462496128253 -0.10866434652498451 -0.03867675333264584 0.09102439187290022 -0.1664455131518688 0.030032767153029803

layer2.bias f8 [100]
00000000: 5714 8521 9d51 6e3f 252c 15e1 6a22 b9bf
00000010: 27cf 37b3 0a17 82bf edac 3ef5 f516 a73f
00000020: b954 afef 1634 8ebf 5b24 2d3d b950 ba3f
00000030: 2b53 ece8 5df9 9fbf 5349 833e 4d76 b63f
00000040: 90d0 654c 6420 9ebf e384 c81e b702 9abf
00000050: d75d 578b 5c78 bbbf 039e b22b b50f 6fbf
00000060: dbaa 4943 0eb6 c3bf d1bf 3bdd fb1d cd3f
00000070: 9d36 9d5d 32e7 c03f 1cfe 5ce6 5181 ca3f
00000080: 0e17 3b04 5ad6 b33f f095 75f4 f5d4 c33f
00000090: 160d 1bb2 3815 cd3f 38f0 f4df 30b6 be3f
000000a0: ed1f 33cd 12ac b7bf 415e 2aee 8dee b23f
000000b0: 404b a4ae 7bc7 d33f 7a0b cd2d 46c9 b8bf
000000c0: f0ab 972c 9822 b9bf d349 92bf b7c9 bebf
000000d0: 8d48 b612 31eb 913f 179d 70e9 0709 c63f
000000e0: 6452 c1ee e796 a4bf f184 a819 8100 cf3f
000000f0: 8b61 1a8b 3f38 85bf 846c 9478 6a01 cb3f
00000100: 8f56 e03f dd9e b6bf 115f 2bd0 ef30 afbf
00000110: a891 169a 9afa b5bf 0c68 4b66 43be c03f
00000120: f79b d643 5274 86bf b63b cd57 3ef2 97bf
00000130: 23a0 e8fc 94b2 9a3f fae5 a2e7 cd22 a4bf
00000140: b9aa a5a7 95be b3bf f31f d7ac fd7e a8bf
00000150: a3f9 5af6 9700 ca3f f272 a9b8 5fcc c33f
00000160: fb82 5b40 c32f c13f abcb 020b 20ca a4bf
00000170: 6aeb 00e9 280d c83f f8a6 dfda 65b3 cc3f
00000180: f0db eeee e171 ce3f 0189 9e6d 31ee adbf
00000190: a708 e77f 0493 a0bf a031 d79c 3daa c63f
000001a0: 8c92 dcbc bc21 b8bf 943d 9302 d943 a5bf
000001b0: 3d6e 72c9 a001 a63f 6195 8a45 9e4f 6f3f
000001c0: 7045 b418 ac3f c13f ec6f efb9 fe9a b6bf
000001d0: ea4a 6a32 2bd4 97bf b35c bc13 972e 8b3f
000001e0: d595 d4bb 0e36 cfbf d295 42e3 7733 bb3f
000001f0: 5f73 9bce 9882 b4bf e045 9568 4148 983f
00000200: c302 c0b7 9f91 a2bf faac f610 d4ca 98bf
00000210: 9b62 ab6e a77e a0bf f2fb db97 e1b8 b13f
00000220: dfa6 323f f3ae 2abf ff58 6ec9 601d cd3f
00000230: daac 3629 daaf d03f bfff 9968 37f5 a9bf
00000240: ba87 eede 0d53 a9bf 9668 f694 1ba9 a53f
00000250: 262f 58a6 7ddc 90bf 5167 50f7 c720 933f
00000260: 95f6 a540 473b 9e3f 91a0 2d8c 2535 b9bf
00000270: 6caa 4284 48e2 823f 6069 1125 5d82 863f
00000280: 3632 bf80 a89c d83f 7213 7ac4 2e56 b3bf
00000290: 7fff 9074 7b00 c13f dadb f819 ad24 9f3f
000002a0: 82d6 ab3e 1afd 883f 2b40 df33 d22a ac3f
000002b0: d031 4221 f123 c4bf d26b 2400 97fc cd3f
000002c0: 77bd 44e6 552a af3f a702 3348 3297 af3f
000002d0: 7e36 5e66 ebd5 893f 0dcf fa19 e35d bc3f
000002e0: 7b38 420d 48f2 b7bf 1c96 7cb7 b298 953f
000002f0: f21d 870b 72a9 9d3f b393 fa86 ea46 d13f
00000300: 4093 1b4a c5bc b8bf ba94 f349 e11d c63f
00000310: 3b5d e5d1 7636 babf 9aa4 66b0 c7fa d03f
0.003701025863991829 -0.09818141932662224 -0.008833011240291079 0.04509705179892785 -0.014747790517427683 0.10279424422800913 -0.03122469648504304 0.08774264122192692
-0.029420439875551596 -0.025400983098852314 -0.10730532075773823 -0.003791669701587842 -0.1539933994821102 0.22747753431713005 0.13205556460382165 0.20707153080182727
0.07748949626246945 0.15493654667368117 0.22721012779775468 0.11996751277632789 -0.09246938237913556 0.07395255150401515 0.30905048422680537 -0.09682119959056293
-0.09818411911662372 -0.12026546885525784 0.017498747603504717 0.1721506013720748 -0.040213821310918246 0.24220288994641906 -0.010361191208446715 0.21098070991215334
-0.08836157617073524 -0.06092023292666061 -0.08585516225736589 0.1308063745007647 -0.010964052863370084 -0.023385023221006405 0.026071861206361412 -0.03932803585616891
-0.07712684004733718 -0.047843863819764375 0.20314311532088167 0.15467449680991013 0.1342701019521185 -0.04060459265146873 0.1879016053879597 0.22422478854360128
0.23785041968014253 -0.058457893973598025 -0.03237165509519118 0.17707033308250875 -0.09426478968505075 -0.04153326183733977 0.04298117121762999 0.003822144626911481
0.1347556229234601 -0.08830253638683389 -0.023270297004795028 0.013272457399166581 -0.2438372056141548 0.1062540941080308 -0.08011775058862501 0.023713132866140074
-0.036267272167611185 -0.02421122888123948 -0.0322162935823986 0.06922731359007608 -0.00020357817957022178 0.2274590476560618 0.2607331659771269 -0.050698977965111684
-0.049461778128957204 0.04230581468000698 -0.016466105726109202 0.01867973753915148 0.029523003884142602 -0.09846720382995701 0.009220663582103238 0.010990836805082338
0.3845616586011461 -0.07553379341886826 0.13282721702307396 0.030413346014224497 0.01220150474317028 0.055014199096717974 -0.15734686016038646 0.2342709303564719
0.06086986957449885 0.06170041209543813 0.012615050374530808 0.11080760368605187 -0.0935406715745745 0.02109030957139711 0.028966695741273037 0.2699533765938284
-0.09663041171331788 0.1727868662921191 -0.10239355682766853 0.2653063986459273

layer3.weight f8 [5, 100]
00000000: a052 637a ddb9 d03f 80d3 217c dc47 23bf
00000010: 3df3 10b9 12ff a43f f91e 0bc4 8051 e7bf
00000020: 7770 da91 6317 b83f 58de 379b 7e73 b63f
00000030: 6f15 10e8 482d d83f 866e dcfd 8d5f b43f
00000040: 7279 9a4b 2e36 c03f a10b a1bc a439 abbf
00000050: b03a 7968 1106 e7bf fdba 3a05 3f0a ca3f
00000060: 653e 3020 dcf1 cf3f d4cd 81a2 f9b3 b3bf
00000070: 32a2 c358 8c20 a43f 04fa 56f6 172c a13f
00000080: 91db 32fd b08a 8c3f d346 1dfe bccf c43f
00000090: 258c 5e96 3aa1 d5bf 520b 6d04 1fa4 b33f
000000a0: 963a 1767 e9ea d63f 18ac 3dee f435 c73f
000000b0: 293e eaeb 1a44 bebf 0981 f0dc f42d c33f
000000c0: 1e33 f31d 5c7f c53f 466b 5c5b 3347 b63f
000000d0: 0ff6 79dc e54d b43f deb7 5740 2339 a83f
000000e0: 121d 6a87 19d6 c8bf 4f96 f698 44b3 933f
000000f0: 563b 3409 41f2 bebf 9c73 df73 7269 c43f
00000100: 2fd4 045b 0062 cd3f 459b 7bdf 1f79 cc3f
00000110: 5a5f 65d5 dfcd 983f a6d4 31bc c152 d9bf
00000120: c024 89f3 fd23 cb3f d2f8 0218 1853 bc3f
00000130: 7e94 509d 5ebe aebf 4b47 6fd5 553f 81bf
00000140: 63df 2a73 b320 b5bf e80f ad6d 67ee b83f
00000150: 53ab 0386 9824 a93f 057a 9117 4fb6 c0bf
00000160: 790e d0e3 9ee3 df3f 8ff9 ed82 079f b93f
00000170: f06c 9b36 56e0 b43f 83a3 be7e 2db7 bd3f
00000180: 13f7 1fd1 1939 d1bf 7ed4 03af ca78 96bf
00000190: 49b4 bbfc b7de 9f3f e4f0 3a29 12e7 acbf
000001a0: 2585 f8c1 3079 74bf 9a83 3073 259a e13f
000001b0: eb94 431e ba93 9b3f 6ca5 a30c 8ae9 c1bf
000001c0: d829 772a 5c7a ba3f f203 2639 ada2 9c3f
000001d0: 7228 956a f887 a9bf 3bac f4f9 1e41 c63f
000001e0: d74d 5303 4706 c1bf f42d 73ec b323 98bf
000001f0: 584d 2949 3fc7 b7bf ca2c 3b52 732f b63f
00000200: d97f feeb ebce b73f 7106 09ee 600a d03f
00000210: d357 1a04 caa3 dabf 5c52 fb7a 231f e33f
00000220: 7f26 1d41 0163 d13f fa7b 6de8 ae39 9a3f
00000230: 1a88 b12b 90f9 85bf 53fb 2769 cf57 be3f
00000240: fd6e f735 303d cb3f abdd 8db8 fb23 e03f
00000250: bff9 4b07 6eea c23f 0fd2 b9ef fb00 ab3f
00000260: 5824 a904 d2c3 b53f 48dd a06c 0656 c8bf
00000270: be8b fdd1 88d9 b9bf a379 638c fd06 b33f
00000280: c3ec a2da e444 ccbf 2a95 05d9 11a6 a6bf
00000290: 1611 e4fa 9e03 a3bf 03f8 2c8f 8666 b23f
000002a0: 0cc6 4ad9 9454 9cbf 4d97 d63f 27b2 d43f
000002b0: 6ada ef49 a508 6cbf f4e2 84ad 3be6 d4bf
000002c0: 97ee 2b6b e902 c7bf aa04 97ee 0208 b23f
000002d0: 7c0c 1c8b c411 c83f 312b 2384 8c37 c73f
000002e0: e6cf a7cb acd1 b6bf 1fbd 282b 9d3e a8bf
000002f0: 9f0a d77f c136 ce3f 998b 1ac4 fe3b dbbf
00000300: 74d2 9593 b071 a73f 458e ff7d 6687 5f3f
00000310: 36d8 7d3a 1dd8 9c3f bb6d d1e9 95aa b9bf
00000320: ff35 3512 e219 b33f 790a 249e 150c afbf
00000330: 8b64 9734 8fb1 c83f cc6b 6511 09f4 d53f
00000340: 064e c457 20d3 d03f d288 df17 f58d d23f
00000350: abc8 9802 e2b4 d33f 9f2a 1f2e f14a d9bf
00000360: 004f a7b7 a27a 973f b77f ea27 c3ef c43f
00000370: c7a7 980b b84e d53f c2f6 b115 6f05 90bf
00000380: 0951 4ff8 740d c43f 4428 7789 8b89 c13f
00000390: d908 26fe e52e e7bf bb96 dfef c38b b83f
000003a0: d59a 6226 9e81 e3bf d939 2e44 9ed3 b13f
000003b0: 1647 f68f 5f64 8d3f 32ad ecc4 6e4b b13f
000003c0: 93bd b2b9 fd00 87bf 8285 588a ceae b13f
000003d0: 5186 84f3 0636 cfbf 7a45 df9c 394f c33f
000003e0: 7a96 fa99 b3cc cd3f 98c7 a0e0 6036 b83f
000003f0: 183a 4375 d785 b3bf c744 c113 d728 b6bf
00000400: b375 ff0b b4dc dfbf eb55 dacb 6d40 e6bf
00000410: 711d 7250 ad3f c73f 4ce6 8f6d 6e3d b7bf
00000420: a5a9 e689 6d7a d53f 72d6 7547 657c ebbf
00000430: fac5 52fb 0973 b2bf d2d9 0ee1 518b aabf
00000440: 3516 f8d4 8202 c03f 44c8 7179 0144 c83f
00000450: 577f 9db7 cd50 cf3f 245f b216 808b ad3f
00000460: ea17 2edc 4e14 90bf 1d30 95ee cdb5 be3f
00000470: 1f12 f71c e8af bb3f 6b07 9908 1ada b23f
00000480: 7f4a 36fb 047b 9d3f 8618 f619 dd80 b13f
00000490: bf1a 54a4 9134 94bf 7b10 afce 16c0 97bf
000004a0: 60e7 1979 a114 a93f 507b f47c b87a 95bf
000004b0: 4b72 71ea 5efa 87bf a76d b963 aba1 a23f
000004c0: b852 feed 36b3 7a3f 7ddd ca42 97e0 cb3f
000004d0: 1176 6b93 c98c b33f 9399 f367 1562 d13f
000004e0: 1e40 741e 30de 9bbf 172f bec2 d00e ac3f
000004f0: 1bd5 54c1 4bed b0bf b959 2ef6 b4f2 c2bf
00000500: af06 6a2b 4624 de3f 1647 1216 eaea cebf
00000510: ed3f 4be6 222b d03f 30c5 26fd 1ee2 ebbf
00000520: 1c85 0736 60c3 b03f b4ff 51bd 9efb d6bf
00000530: f1d6 0780 31e4 c13f 27ad 3b5a 8f28 c9bf
00000540: c1db bbc9 4498 cd3f 3489 d049 81ca b1bf
00000550: 16e5 77e1 7786 a13f 1e2f 72f6 5216 f3bf
00000560: 54f4 209d 3ddc 9ebf 2957 2f03 4116 b23f
00000570: 6fc3 d874 a731 c23f 75ef e0e8 87e2 d13f
00000580: 5d7c c5dc 1341 b43f c324 03c0 7ce7 d53f
00000590: 4673 b466 39a6 da3f 8126 17f5 d679 adbf
000005a0: f8d0 3105 f40e b4bf dd00 b81b 06c6 a03f
000005b0: 052a 9c99 f48e 75bf 3d9d d6bc fed3 cb3f
000005c0: 7db8 04ec 9b53 c93f 6454 eef4 e72d e13f
000005d0: 7f55 f5a7 ab7e cc3f ab77 538c b3ea ae3f
000005e0: ec04 5739 b501 debf ee33 514a 5871 b4bf
000005f0: ccb4 530c f440 d03f 5e8a 6364 b3e8 ca3f
00000600: d861 56a8 6c42 adbf d47f 399f b99f eebf
00000610: 4402 0e71 13e2 d03f 2207 eb45 7c32 b83f
00000620: edf3 c9aa a132 9abf 1c80 2b7e 00b5 be3f
00000630: b704 defb 3e72 9bbf 6c37 13eb 3a88 abbf
00000640: c139 b060 1d4c b9bf e43b 26da 1274 983f
00000650: ff12 acac 57d2 c8bf 8fd2 f456 0a04 c33f
00000660: 1f28 8ca5 559e a13f be23 d092 3bbe edbf
00000670: 0674 dfdd 62f1 cb3f 56be 7b32 bcaf b83f
00000680: 6ca0 1fff 06d7 bcbf ece0 58b3 f1f0 c13f
00000690: a1cd fba0 4665 c43f f710 b38a 12f5 c43f
000006a0: e699 9ab2 53a4 b83f fa5f 7a97 c7c2 bc3f
000006b0: 8b6e 74dd d8e7 adbf 1eb0 3f6e 3bd5 dbbf
000006c0: 40a1 c2a7 8696 c83f 55c8 5190 97dc bd3f
000006d0: 02fb 4539 8c56 b83f 223f 97e3 8352 8fbf
000006e0: 850e 7c50 598e cf3f 8daa e6ea 6f6b edbf
000006f0: 4ef6 4418 a509 c0bf b771 dc06 d5a7 b33f
00000700: ce1d 48b0 90be a53f d2fc 8600 12e2 5cbf
00000710: 17ed 4b90 1de4 cc3f 61d1 fc85 07d9 a33f
00000720: e683 021d f8ee ca3f 1591 17b2 821c af3f
00000730: a4d4 1f2b c998 c43f cee6 5bfb 197d d5bf
00000740: 7699 1960 9ff5 a13f b3f6 d78c 3bfc dc3f
00000750: efaf 69ec 1af6 9bbf 8899 7734 446c cdbf
00000760: 8186 cc66 4f51 cdbf 0c21 f337 705d bb3f
00000770: 5841 542b aa5c b73f 7bf3 1b2f 8b67 b1bf
00000780: 1817 8bb2 b2e1 a3bf 6493 b4da dec3 b33f
00000790: 6553 79dc d459 ae3f 13e3 bd97 6357 d7bf
000007a0: 009f a375 c088 c7bf bd07 263c bcfa b93f
000007b0: 1468 e14e 7c2f cc3f 9933 c753 5594 d7bf
000007c0: 7dc8 e6c8 cd07 c0bf 0654 9f79 a530 b4bf
000007d0: 3968 4894 c010 aebf 29ca f26d 59d6 d5bf
000007e0: 44ae c0dc 1c9a b23f 73cc c38e f9c6 e5bf
000007f0: 12b4 64e9 bf1e b53f 5f5b eb7e d3ef c33f
0.2613443083949196 -0.00014710012880283715 0.0410085535918143 -0.7286990956281151 0.094106886967383 0.0876998070669911 0.3777639642942949 0.07958304832248517
0.12665346805165317 -0.053174160028468316 -0.7194907227038438 0.20343768840162815 0.2495684773607422 -0.07696495263535691 0.03931082328364645 0.033539532490511476
0.013936407782564138 0.16258966834953145 -0.33796562847618566 0.07672304018073575 0.3580878741021619 0.18133412964684292 -0.11822670230525802 0.1498399809652329
0.16794921362306864 0.08702393513196424 0.0793136275551307 0.04731092606003505 -0.194033805008282 0.01923854049313994 -0.12088400339801572 0.15946798951963792
0.22955326504021076 0.2224464265084071 0.024222848319680558 -0.3956760728681935 0.21203588858978684 0.11064291559430053 -0.06004615469309103 -0.008421583724984713
-0.08253022729593122 0.09738775661122612 0.04910732875744963 -0.13056362772745458 0.49826786277137775 0.10008284517787146 0.08154810746366414 0.1160763201174984
-0.2691101591334341 -0.02194515889364767 0.031123041916476777 -0.05645043137835318 -0.004998388728865853 0.550066685657032 0.02693072137562506 -0.13993955247068912
0.1034295657802099 0.02796431218439816 -0.04986549664552421 0.17386233525152925 -0.13300407087682117 -0.023573695475347337 -0.0928840211502594 0.08666153676601876
0.09300112258506434 0.25063346143369986 -0.4162468948428543 0.5975510980593515 0.2716677795293449 0.02561066907525953 -0.01072991021482399 0.11852737729348677
0.21280481944165067 0.5043924908231266 0.14777922970092836 0.05274188329068263 0.08501923192774663 -0.19012527755851694 -0.1009755623504551 0.0743254153962654
-0.2208524768410368 -0.04423576139633163 -0.03713700115807421 0.07187691684245583 -0.02766640259023316 0.32337361559108474 -0.0034220913216771913 -0.3265523142359108
-0.1797763608263849 0.07043474507283301 0.1880422286268163 0.18138271762867356 -0.08913688633020875 -0.04735270644993705 0.23604601614177498 -0.4255368151736377
0.04578925897195499 0.001924371805210338 0.028168160147707698 -0.10025917967271074 0.07461369461562838 -0.0606390719931555 0.1929186827462995 0.34301974009366343
0.26288612910249787 0.2899143918167627 0.30791521314234654 -0.39519910339428493 0.02292875524456317 0.1635669655706786 0.33292962200596005 -0.015645728778045827
0.1566606724214881 0.13701004230671476 -0.7244749034728343 0.09588265043529536 -0.6095724820814562 0.06963528790058805 0.014351603108284244 0.06755726154067501
-0.011232359151420101 0.0690735900648374 -0.2438362778712411 0.1508552566506685 0.2328094961023231 0.09457974895556587 -0.07626101124626705 -0.08656067116068576
-0.4978456608931438 -0.6953648549558101 0.18163076808944426 -0.09078111815315387 0.3355974051179607 -0.858935012408166 -0.07206785569976396 -0.051844176028157954
0.12507663153535167 0.1895753710737741 0.24465342965685963 0.05770492817936049 -0.01570246905205145 0.11996161532187029 0.10815287310749298 0.07364046773821335
0.028789594490783884 0.06837255367108427 -0.019731784491365142 -0.023193699231129444 0.04898552516256305 -0.02097595465340457 -0.011708013085972932 0.03638969032609945
0.0065185685815733405 0.21779146920537676 0.07636699532618986 0.2716115489150976 -0.027214767321368176 0.05480053307755222 -0.06612084836963954 -0.14803182621535685
0.47096399535812855 -0.2415440185328001 0.25263283242838847 -0.8713526672710596 0.06548119849278006 -0.3591076706725247 0.13977640868659294 -0.19655029207147232
0.23120937204632067 -0.06949623157610035 0.03422903659152092 -1.1929502131269554 -0.030137026515366053 0.07065206840283324 0.14214032369047966 0.27945134870582616
0.07911800517966712 0.34225386382292927 0.4163955214478857 -0.05757018796755365 -0.07835316778966106 0.03276080215801056 -0.005263286084082446 0.2174070760786239
0.197864046328906 0.5368537696655378 0.22261567784395805 0.060384379272121556 -0.46885424232102824 -0.07985450567612393 0.2539644356136932 0.21022646333502143
-0.057147403286936516 -0.956997691140709 0.26379858055591776 0.09452034670814816 -0.025583768891454573 0.11994937019653701 -0.0268030015208793 -0.053773728557287764
-0.09881766901546653 0.02388028580167746 -0.1939191430211835 0.14856080289759574 0.034411121805604454 -0.9294717662279408 0.2183040221561045 0.09643150551323151
-0.11265605667688455 0.1401655317038214 0.15934069500472695 0.1637290169948142 0.09625743017622987 0.11234710167116183 -0.05840947821908767 -0.43488965765459564
0.19209368888301448 0.11664721749710456 0.09507061384463714 -0.015294103987713085 0.24653164319908086 -0.9193648898993431 -0.12529433903721315 0.07677966516025135
0.04246952201725272 -0.001762883739601585 0.22571153207523117 0.03876517782774403 0.2104177610063111 0.06076439308142959 0.16091265302353464 -0.33576058909202977
0.035077076416928074 0.4528950572419987 -0.027306004218573262 -0.22986652910112704 -0.22904388923148036 0.10689450612983736 0.0912577014717092 -0.0679862012875229
-0.03883131436809445 0.07720749701964064 0.05927910987217081 -0.36470880335359473 -0.1838608335885894 0.10148216694326968 0.22019914485537184 -0.36842854672868836
-0.1252381545032825 -0.07886728495880399 -0.058721559620793014 -0.3412078450884644 0.07266407384366241 -0.6805389202476263 0.08250045250015628 0.15575641343340416

layer3.bias f8 [5]
00000000: e105 e002 fbf2 c6bf 5b5b 3eeb f26c d1bf
00000010: fe8b dc19 3f50 b0bf dc89 22e4 af62 68bf
00000020: b199 f623 314a d03f
-0.17929017677674522 -0.27227471325880054 -0.06372446423897313 -0.0029767451643050013 0.25452831756629296
